student.pt (torch, 439383 bytes, 6 tensors)

fc1.weight f4 [128, 784]
0.022237247 0.041663423 -0.006889748 -0.0037788453 0.008749226 0.03208172 0.021797016 0.050822217
0.019335229 0.031955123 0.011711426 0.015484543 -0.013413271 -0.0048818286 0.0077825002 0.02382762
0.03662387 0.043934125 -0.0017074586 0.0069525028 0.035476774 0.052161437 0.015154736 0.049230147
0.016748149 0.026283788 0.05484316 -0.010626297 2.1227796e-05 0.013463123 0.008583307 0.05336189
-0.00064453675 0.0060431897 -0.010311864 -0.020514669 -0.0088599855 0.04762401 0.038392026 0.039570183
0.020737262 0.0004104388 0.027606279 -0.01128572 -0.0035648753 0.0040529585 0.04504996 0.04345179
0.006664984 0.021213638 0.045289066 0.05792999 0.03667914 0.027329454 0.046450663 0.0014760711
0.029159827 -0.0051847617 -0.0022483831 0.0040553072 0.038662586 0.03678216 -0.0035954572 0.023292972
0.025559278 -0.00085971464 0.016298123 0.020649321 0.016447846 0.031613838 -0.016016787 0.002021015
0.02649228 0.042968843 0.047301725 0.057967704 0.032443527 -0.010422666 0.024476359 9.7680066e-05
-0.010780226 0.05423637 0.04966044 -0.013121264 0.029189399 0.016488275 0.016627513 0.0061562746
0.03623678 0.0010770776 0.019198911 0.020400705 0.022275908 -0.00029693966 -0.059474573 -0.08387486
-0.029993318 -0.026845917 -0.025223158 0.024086358 0.100904584 0.057836138 -0.025628349 -0.018410513
-0.048392203 -0.009793611 -0.03381895 -0.033037353 0.011937013 0.030574795 0.00841505 0.043696787
0.00077117776 0.054910798 0.04699439 -0.007582122 0.013418432 0.010999018 -0.010133315 -0.01878897
-0.067945145 -0.09092979 -0.13770707 -0.056210168 -0.1206015 -0.09054185 -0.04749074 -0.045641568
-0.03320945 0.03009006 0.019958045 0.03502829 -0.04335533 0.009500027 0.044629723 0.020751344
0.041860655 0.02835013 0.030559994 0.045244414 0.05633494 0.045185294 0.05641227 0.015313905
-0.024302952 -0.031262543 -0.05592318 -0.08776774 -0.07574438 -0.07663628 0.0027302448 0.13636969
0.19120844 0.09335048 0.001640739 -0.14788567 -0.042108208 -0.08836538 -0.069117166 -0.15384126
-0.10771458 0.02064789 0.021733021 -0.02382766 0.05275576 0.03982783 0.011274014 0.03595827
-0.009640181 0.02007312 0.05655623 -0.012304414 0.031800125 -0.041075226 -0.15910797 -0.020071017
-0.012260306 -0.009996446 0.1530906 0.1786235 0.1031724 0.060123503 0.0012901484 -0.04206296
0.044150338 0.05339109 0.0232132 0.044234693 0.09324643 0.07349165 0.16295253 0.12613544
0.044324707 0.066863135 0.0011188869 0.005057338 0.001693812 0.03400816 -0.00017537254 0.002062247
-0.026829122 -0.067620456 -0.116703846 -0.06991398 -0.01575368 0.059202354 0.09462756 0.038302355
0.025719495 0.12912373 0.12464643 0.03662856 0.048885234 0.096996404 0.17206949 0.11674538
0.15195656 0.17226116 0.1462887 0.048947316 0.027624855 0.09114806 0.040031396 0.024293663
-0.008445634 0.034457427 -0.011337919 -0.01099758 -0.05573325 -0.052799933 0.029638745 0.012356529
0.058140654 0.13580535 0.046191625 0.011480724 0.07563247 0.12651871 0.15120092 0.103905395
-0.038066696 0.07305888 0.049008347 0.025635002 0.035245925 0.053293996 -0.057853945 -0.04590703
0.029011777 0.038278162 0.0077366903 0.027229263 0.05202334 0.0043814816 -0.017569136 -0.026421223
00000000: e32a b63c 44a7 2a3d 65c3 e1bb 81a6 77bb
00000010: ea58 0f3c 1f68 033d a88f b23c f52a 503d
00000020: ea64 9e3c 60e3 023d 48e1 3f3c e1b2 7d3c
00000030: 56c3 5bbc bff7 9fbb 5804 ff3b 2432 c33c
00000040: e902 163d 45f4 333d cecc dfba d2d1 e33b
00000050: 1850 113d 3ba7 553d 924b 783c 8da5 493d
00000060: 6a33 893c 1951 d73c 39a3 603d ec19 2ebc
00000070: 5812 b237 6e94 5c3c 00a1 0c3c ff91 5a3d
00000080: 21f6 28ba f305 c63b 18f3 28bc 610e a8bc
00000090: 7929 11bc 6511 433d f540 1d3d 5814 223d
000000a0: 31e1 a93c 2a30 d739 9026 e23c bee7 38bc
000000b0: afa0 69bb aece 843b 4f86 383d 81fa 313d
000000c0: f065 da3b 39c8 ad3c 0781 393d ff47 6d3d
000000d0: de3c 163d 05e2 df3c 0d43 3e3d ba78 c13a
000000e0: 97e0 ee3c efe4 a9bb 9c59 13bb 62e2 843b
000000f0: a95c 1e3d e4a8 163d c3a1 6bbb e7d0 be3c
00000100: b161 d13c 795e 61ba a483 853c c428 a93c
00000110: a2bd 863c 837d 013d a335 83bc 0173 043b
00000120: 5706 d93c 1900 303d 74bf 413d 8b6f 6d3d
00000130: 81e3 043d d4c3 2abc a582 c83c 96d9 cc38
00000140: 8c9f 30bc f526 5e3d bf68 4b3d 92fa 56bc
00000150: 9b1e ef3c 6b12 873c 6c36 883c 93ba c93b
00000160: 056d 143d ba2c 8d3a 0947 9d3c 611f a73c
00000170: f77b b63c 91ae 9bb9 9c9b 73bd 95c6 abbd
00000180: 8cb4 f5bc f8eb dbbc cca0 cebc c150 c53c
00000190: 10a7 ce3d 96e5 6c3d 8bf2 d1bc a5d1 96bc
000001a0: e736 46bd 6275 20bc bd85 0abd 2d52 07bd
000001b0: 7693 433c fe77 fa3c 47df 093c 67fb 323d
000001c0: dd28 4a3a 25ea 603d 317d 403d 7373 f8bb
000001d0: fcd8 5b3c 3a35 343c 3406 26bc 53eb 99bc
000001e0: d326 8bbd 6639 babd 1503 0dbe a23c 66bd
000001f0: ebfd f6bd 016e b9bd a685 42bd a7f2 3abd
00000200: a206 08bd 6e7f f63c 0e7f a33c d379 0f3d
00000210: 5c95 31bd 00a6 1b3c a8cd 363d b9fe a93c
00000220: 1476 2b3d 883e e83c f458 fa3c 3552 393d
00000230: 77bf 663d 3714 393d 8d10 673d 2ce7 7a3c
00000240: fc16 c7bc 270d 00bd b40f 65bd 93bf b3bd
00000250: df1f 9bbd 7bf3 9cbd e8ed 323b 7fa4 0b3e
00000260: 25cc 433e 892e bf3d 110e d73a 576f 17be
00000270: a879 2cbd e9f8 b4bd 4d8d 8dbd 9088 1dbe
00000280: 7699 dcbd c425 a93c 7309 b23c 3a32 c3bc
00000290: 6c16 583d 8222 233d a4b6 383c fb48 133d
000002a0: daf1 1dbc 6270 a43c 81a7 673d 7498 49bc
000002b0: d940 023d 7f3e 28bd 33ed 22be f96b a4bc
000002c0: 73df 48bc 22c8 23bc c8c3 1c3e 14e9 363e
000002d0: 0d4c d33d 1044 763d 321a a93a 364a 2cbd
000002e0: fcd6 343d 9eb0 5a3d 9c29 be3c 702f 353d
000002f0: fcf7 be3d ca82 963d 07dd 263e a629 013e
00000300: d38d 353d 8aef 883d 9da7 923a 07b8 a53b
00000310: e602 de3a 244c 0b3d 35e4 37b9 c326 073b
00000320: bfc8 dbbc 987c 8abd 6d02 efbd 102f 8fbd
00000330: dd0d 81bc 2b7e 723d 18cc c13d eee2 1c3d
00000340: b1b1 d23c 0339 043e a146 ff3d d407 163d
00000350: e23b 483d 0da6 c63d fc32 303e 3418 ef3d
00000360: 809a 1b3e 3b65 303e b4cc 153e fb7c 483d
00000370: 854d e23c d6ab ba3d f6f7 233d 8103 c73c
00000380: 8e5f 0abc 3b23 0d3d aec2 39bc 322f 34bc
00000390: 8c48 64bd be44 58bd f4cc f23c 0a73 4a3c
000003a0: e524 6e3d 8f10 0b3e 6e33 3d3d a619 3c3c
000003b0: 32e5 9a3d 1f8e 013e 6ad4 1a3e 5acc d43d
000003c0: d3eb 1bbd e59f 953d fabc 483d 7f00 d23c
000003d0: 085e 103d ce4a 5a3d 42f8 6cbd 0309 3cbd
000003e0: 1baa ed3c 90c9 1c3d 1084 fd3b e70f df3c
000003f0: 6d16 553d 8892 8f3b 26ed 8fbc 5271 d8bc

fc1.bias f4 [128]
-0.061493702 0.01747657 0.01554902 -0.03934356 -0.0033750592 -0.01743331 -0.01000468 0.033558667
0.044873856 0.00045175437 -0.017608838 0.0002969945 0.012106231 -0.009088571 0.017624374 -0.0016980192
-0.054173782 0.02773603 -0.03644947 0.0070423177 -0.0171791 -0.024793353 -0.030394392 0.025717271
-0.010467743 -0.022212481 0.011832853 -0.023567231 0.06170235 0.0121750785 -0.05395832 -0.008610752
0.015196164 0.005374288 0.004543743 0.035911612 -0.028953455 0.039193723 -0.059025176 -0.025362685
-0.017922351 0.01813949 0.03204198 0.009168602 0.019349651 -0.012394618 -0.017184366 -0.026369298
-0.038896535 0.059551712 0.021001924 -0.0058294516 -0.022735782 0.033090524 0.027192825 0.025536139
-0.045839258 -0.0036006523 0.0028892993 -0.049098853 0.0028078633 -0.070139006 -0.025531968 0.030739203
-0.0614331 0.0020249765 0.053654175 -0.0017023161 0.03484912 -0.03905906 0.046741933 -0.042214014
0.0060163913 -0.020222347 0.037388533 -0.035454344 0.009694299 0.0032755854 0.0025586437 0.00795446
-0.0067776083 -0.038496185 -0.022317013 0.0105252275 0.018793069 -0.02135236 -0.020319263 0.032036427
0.04657597 -0.010913491 -0.002851012 -0.012360852 -0.0589474 0.022723641 -0.0073547103 0.008489973
0.018156618 -0.014154464 -0.026931195 0.0026147556 -0.030640122 0.052482177 -0.014843899 -0.031197958
-0.034314778 -0.010930614 -0.03427619 -0.04808427 0.046728615 0.009806496 -0.057625413 -0.022909198
-0.0046876604 0.034650758 0.051724855 -0.018604886 -0.0524275 -0.006779585 0.04136391 0.01879796
0.02080132 -0.02831014 -0.034706518 -0.027727803 0.010928003 0.020580653 -0.07747493 0.049387585
00000000: d2e0 7bbd 062b 8f3c 51c1 7e3c b626 21bd
00000010: 1930 5dbb 4dd0 8ebc abea 23bc d074 093d
00000020: a6cd 373d 72d9 ec39 6940 90bc edb5 9b39
00000030: 3759 463c 3be8 14bc fe60 903c 1290 deba
00000040: 54e5 5dbd ac36 e33c 0a4c 15bd 3ec3 e63b
00000050: 2fbb 8cbc 6e1b cbbc a9fd f8bc 07ad d23c
00000060: e580 2bbc f3f6 b5bc 95de 413c 1110 c1bc
00000070: 9abb 7c3d fb79 473c 6603 5dbd 1d14 0dbc
00000080: 55f9 783c cc1a b03b aee3 943b 0e18 133d
00000090: cc2f edbc 9989 203d 62c4 71bd 68c5 cfbc
000000a0: e5d1 92bc 4599 943c 743e 033d e737 163c
000000b0: 2983 9e3c cc12 4bbc 3ac6 8cbc 6d04 d8bc
000000c0: f951 1fbd 7fec 733d 3a0c ac3c fc04 bfbb
000000d0: 6440 babc ee89 073d 7dc3 de3c 2a31 d13c
000000e0: f2c1 3bbd ecf8 6bbb 665a 3d3b e11b 49bd
000000f0: 2104 383b 0aa5 8fbd 6b28 d1bc c8d0 fb3c
00000100: 46a1 7bbd 78b5 043b 7bc4 5b3d 4020 dfba
00000110: f3bd 0e3d 65fc 1fbd 7874 3f3d 9ae8 2cbd
00000120: 2625 c53b 56a9 a5bc b824 193d 9338 11bd
00000130: d6d4 1e3c 34ab 563b ebae 273b 6c53 023c
00000140: b316 debb 2dae 1dbd 2bd2 b6bc 0172 2c3c
00000150: ecf3 993c 25eb aebc 9574 a6bc a138 033d
00000160: 72c6 3e3d 80ce 32bc 0bd8 3abb 2c85 4abc
00000170: d472 71bd ee26 ba3c c8ff f0bb 8719 0b3c
00000180: 30bd 943c 20e8 67bc cf9e dcbc 525c 2b3b
00000190: fe00 fbbc 8df7 563d d333 73bc dc92 ffbc
000001a0: a78d 0cbd 5116 33bc 3165 0cbd 03f4 44bd
000001b0: 8166 3f3d 6dab 203c a008 6cbd 12ac bbbc
000001c0: f29a 99bb f4ed 0d3d 71dd 533d 4669 98bc
000001d0: 38be 56bd 4827 debb 346d 293d 2efe 993c
000001e0: 8867 aa3c abea e7bc 6c28 0ebd 6b25 e3bc
000001f0: 5e0b 333c c298 a83c 2dab 9ebd a34a 4a3d

fc2.weight f4 [64, 128]
0.06258855 -0.04653629 0.11790462 0.08003381 -0.16553916 -0.16710487 -0.14872639 -0.30752137
0.04694999 0.19425483 0.05756482 -0.10833472 -0.12986487 -0.1480002 -0.007523536 0.19622663
0.22850837 0.050561108 0.12971167 0.20519334 0.057614375 -0.0108689135 -0.09270133 -0.036189575
0.4096384 0.18037061 -0.02770453 0.11233983 0.06578162 0.015521518 -0.028494993 0.27477008
0.17348719 0.12790354 -0.17894694 0.06373408 0.093192525 0.15522249 0.054948226 0.2826942
0.103709586 0.18102612 0.1422328 -0.28592965 -0.08803465 0.30362257 0.049502958 0.23178606
0.11974445 0.04193393 0.0046450403 0.097785525 0.16740257 0.0856273 -0.05591875 -0.12370577
-0.029009447 0.23679495 0.24081543 -0.11228082 0.11546283 -0.20981328 -0.18466099 -0.1577121
0.23048832 0.28907666 0.29373115 0.29723483 -0.19466327 -0.15926997 0.11388216 0.18615928
0.018999424 0.22977261 -0.13843262 0.19932655 0.14142449 0.13136631 -0.17620967 -0.13251042
0.3889893 0.07049087 -0.029066937 0.04032669 -0.17254117 0.0017115361 0.030681208 -0.0042951806
-0.08107989 -0.022242391 -0.08823846 0.005929664 -0.06960261 0.0581376 0.2796829 0.26562718
0.08496825 0.07141406 -0.14341065 0.060668893 -0.34875822 -0.20414089 0.13488314 0.15767297
0.28189105 -0.0007217611 0.13572174 0.10297295 -0.08781569 0.14479046 -0.021228574 0.27415878
0.07275643 0.058758345 0.026739977 -0.17679006 0.114203274 -0.005203611 -0.044831716 -0.052992858
-0.23301867 0.16987552 -0.10178635 -0.16282463 0.012508822 -0.26046708 0.047143452 -0.18783583
-0.06071555 -0.023597267 0.2103524 0.0032830606 -0.05021052 0.12207284 0.023992857 0.07151972
-0.2197588 -0.08279483 -0.09841529 -0.096140556 -0.09766482 -0.029048871 -0.11477615 -0.05760057
-0.07807474 0.15962707 -0.03237737 -0.11902512 0.23944944 -0.005090976 0.15841971 -0.26347873
-0.25153267 0.122047 -0.016711416 -0.011592335 -0.14786737 -0.12509175 -0.003474798 -0.04916788
-0.17452574 -0.15844667 0.051615335 -0.085112795 0.15558149 -0.13572888 0.030918354 -0.05583343
-0.11515513 -0.019661961 -0.12053377 0.095172085 -0.054651003 -0.10886671 0.03550207 -0.21683
0.026852643 0.041361667 -0.12221414 0.106143035 -0.07539324 -0.16429621 -0.028563581 0.103564836
0.030417029 0.11283666 -0.22536361 0.02149594 -0.20024872 0.17920414 0.10261353 0.084699675
-0.17292719 -0.038815655 -0.22441924 -0.28280643 0.09460319 -0.076468766 0.081962004 -0.20767711
-0.2382941 -0.05344276 -0.14961183 -0.09154113 -0.10027958 -0.07419139 -0.031522658 -0.03507174
-0.22624849 -0.019551182 0.1343591 -0.035773925 0.09612757 0.15255217 0.04385896 0.023461161
0.26901302 0.025885023 -0.07706306 -0.027252162 0.15557997 0.06017117 -0.053080663 0.026173402
0.054348424 -0.27597672 0.023584485 -0.07875034 -0.007035822 0.11610257 -0.16045319 -0.09777154
-0.1471985 0.022818113 -0.107855186 -0.043373443 -0.031534396 0.018560348 0.088485725 0.01391023
0.1816371 0.09893102 -0.032229967 0.10937118 -0.010993257 0.029204778 0.18441609 -0.058435123
0.1976164 -0.1684668 0.05906972 -0.079628974 -0.1163766 -0.030610444 0.13966128 0.013990391
00000000: 6d2e 803d d69c 3ebd fa77 f13d c4e8 a33d
00000010: 1983 29be 8a1d 2bbe bb4b 18be 7173 9dbe
00000020: a24e 403d bdea 463e 17c9 6b3d 98de ddbd
00000030: 4cfb 04be 5d8d 17be ff87 f6bb a2ef 483e
00000040: 19fe 693e 2a19 4f3d 23d3 043e 341e 523e
00000050: 0dfd 6b3d 8713 32bc 32da bdbd 853b 14bd
00000060: 20bc d13e 13b3 383e 9cf4 e2bc 6d12 e63d
00000070: 84b8 863d f74d 7e3c 556e e9bc aaae 8c3e
00000080: a0a6 313e 25f9 023e de3d 37be 0387 823d
00000090: b9db be3d a5f2 1e3e 6411 613d 4bbd 903e
000000a0: b165 d43d e95e 393e 7aa5 113e 5f65 92be
000000b0: 834b b4bd 6b74 9b3e 9dc3 4a3d 5359 6d3e
000000c0: 943c f53d eac2 2b3d 6c35 983b c743 c83d
000000d0: 946b 2b3e 5e5d af3d 0f0b 65bd 7359 fdbd
000000e0: 38a5 edbc 607a 723e 5298 763e 7df3 e5bd
000000f0: c777 ec3d 4bd9 56be c517 3dbe 487f 21be
00000100: 2105 6c3e db01 943e ee63 963e 2a2f 983e
00000110: cf55 47be ab17 23be 0d3b e93d 8aa0 3e3e
00000120: aea4 9b3c 8349 6b3e 48c1 0dbe 421c 4c3e
00000130: 95d1 103e e484 063e 4f70 34be d0b0 07be
00000140: 9b29 c73e 845d 903d c91d eebc 992d 253d
00000150: a2ae 30be 9f55 e03a 2857 fb3c 96be 8cbb
00000160: 370d a6bd ad35 b6bc 5eb6 b4bd a04d c23b
00000170: d08b 8ebd b121 6e3d 9932 8f3e 4900 883e
00000180: d503 ae3d 8941 923d 3eda 12be f27f 783d
00000190: 7090 b2be 4f0a 51be ce1e 0a3e 0675 213e
000001a0: 0654 903e 9134 3dba a4fa 0a3e 7be3 d23d
000001b0: b6d8 b3bd f343 143e 8ce7 adbc 8a5e 8c3e
000001c0: 5301 953d 97ac 703d cc0d db3c 7408 35be
000001d0: 68e3 e93d 0e83 aabb 76a1 37bd 0a0f 59bd
000001e0: 729c 6ebe d9f3 2d3e 5d75 d0bd 80bb 26be
000001f0: cdf1 4c3c f15b 85be 7e19 413d 0958 40be
00000200: deb0 78bd 0e4f c1bc 9f66 573e 9e28 573b
00000210: 8ca9 4dbd 5301 fa3d ab8c c43c ee78 923d
00000220: 7308 61be 5690 a9bd f58d c9bd 57e5 c4bd
00000230: 7e04 c8bd e6f7 edbc c20f ebbd 93ee 6bbd
00000240: a6e5 9fbd 4775 233e 229e 04bd 71c3 f3bd
00000250: 3c32 753e 34d2 a6bb c738 223e afe6 86be
00000260: e4c8 80be c7f3 f93d 61e6 88bc c7ed 3dbc
00000270: 8b6a 17be 0d18 00be 70b9 63bb 4264 49bd
00000280: e0b6 32be d83f 22be 9a6a 533d 9e4f aebd
00000290: c150 1f3e 83fc 0abe 7d48 fd3c 98b1 64bd
000002a0: 74d6 ebbd 1f12 a1bc 69da f6bd 95e9 c23d
000002b0: bbd9 5fbd 82f5 debd 9e6a 113d af08 5ebe
000002c0: 13fa db3c da6a 293d 684b fabd 8561 d93d
000002d0: c567 9abd 443d 28be 2cfe e9bc cd19 d43d
000002e0: 222d f93c e816 e73d b8c5 66be 4118 b03c
000002f0: 000e 4dbe 4a81 373e 0b27 d23d 0677 ad3d
00000300: d313 31be 2afd 1ebd 28ce 65be 01cc 90be
00000310: 51bf c13d a89b 9cbd b2db a73d 4fa9 54be
00000320: 5e03 74be cce6 5abd d833 19be ea79 bbbd
00000330: 615f cdbd a8f1 97bd e71d 01bd 63a7 0fbd
00000340: afad 67be cd29 a0bc 6f95 093e ae87 12bd
00000350: 88de c43d a336 1c3e 74a5 333d 9f31 c03c
00000360: 13bc 893e d40c d43c 3dd3 9dbd ed3f dfbc
00000370: 5b50 1f3e 0b76 763d 1c6b 59bd 9a69 d63c
00000380: 749c 5e3d d24c 8dbe 4034 c13c dc47 a1bd
00000390: c18c e6bb 2fc7 ed3d d74d 24be 723c c8bd
000003a0: 34bb 16be 0ded ba3c 2ee3 dcbd 5aa8 31bd
000003b0: 362a 01bd df0b 983c 0138 b53d bce7 633c
000003c0: 13ff 393e 599c ca3d 9203 04bd fffd df3d
000003d0: 101d 34bc dc3e ef3c 92d7 3c3e ab59 6fbd
000003e0: f45b 4a3e 9082 2cbe 17f3 713d 8414 a3bd
000003f0: db56 eebd c1c2 fabc 5e03 0f3e f437 653c

fc2.bias f4 [64]
0.15921006 0.069194645 -0.008778374 -0.039000127 0.053019404 -0.13326679 -0.03732755 -0.28594652
0.09087759 -0.28461915 -0.10558247 0.066172004 -0.09755678 -0.15283075 -0.16731551 -0.04759786
0.094951846 -0.12722136 -0.27150422 -0.2385206 -0.053365495 -0.27792746 -0.2745947 -0.10031181
-0.2030815 -0.23869228 -0.03707617 -0.19214304 -0.18198341 -0.18270873 -0.1536681 0.22266021
0.0040313588 -0.091934174 -0.038863465 -0.033820692 -0.28012404 0.15811649 -0.13056758 -0.14881788
0.022684788 -0.23365751 -0.10707194 0.2078751 0.08333063 -0.11112014 -0.21078701 -0.119483575
0.11842638 -0.18153068 -0.1708394 -0.1862002 0.025080644 -0.305255 -0.08240818 0.00790472
0.088416874 -0.0006050588 0.16281144 0.035624914 0.13005565 -0.13887444 0.294022 -0.06196944
00000000: f607 233e ecb5 8d3d 2bd3 0fbc 99be 1fbd
00000010: e02a 593d 1777 08be c6e4 18bd 9567 92be
00000020: 081e ba3d 9ab9 91be 9f3b d8bd 3085 873d
00000030: d9cb c7bd aa7f 1cbe c254 2bbe f9f5 42bd
00000040: 1d76 c23d 5146 02be 9a02 8bbe bf3e 74be
00000050: c795 5abd 824c 8ebe ad97 8cbe 4770 cdbd
00000060: 99f4 4fbe c06b 74be 2fdd 17bd 25c1 44be
00000070: dc59 3abe ff17 3bbe 2c5b 1dbe 0a01 643e
00000080: 7d19 843b fc47 bcbd 4c2f 1fbd 9187 0abd
00000090: 6b6c 8fbe 4ae9 213e 82b3 05be b763 18be
000000a0: 73d5 b93c ea43 6fbe 8948 dbbd 36dd 543e
000000b0: 40a9 aa3d f592 e3bd 8dd8 57be ceb3 f4bd
000000c0: 8889 f23d 2ee3 39be 86f0 2ebe 44ab 3ebe
000000d0: ec75 cd3c 624a 9cbe 9fc5 a8bd cc82 013c
000000e0: e813 b53d cf9c 1eba 0bb8 263e 6eeb 113d
000000f0: 4f2d 053e 1a35 0ebe 0d8a 963e abd3 7dbd

fc3.weight f4 [10, 64]
-0.4256852 0.27441922 -0.2741613 -0.14270133 0.045895215 0.1899883 5.0925937e-05 -0.40039566
0.15499887 0.148176 -0.13890949 -0.10814523 0.13807812 0.2509321 -0.18043219 -0.05132451
0.19755134 -0.01720808 0.3358844 -0.058066983 0.02941642 -0.091947585 0.12406788 -0.17038314
-0.059077762 -0.22180042 -0.1584396 -0.4453555 0.024065658 -0.14662631 -0.26356217 -0.3769902
-0.07307433 -0.19922614 0.18480678 -0.34774578 -0.06299852 -0.039220054 0.09619289 0.03508795
-0.17079847 0.05386963 -0.12639701 0.11777676 -0.15577832 0.01829259 0.24786086 0.2808276
-0.01821858 -0.21755877 -0.18829829 0.0099404715 0.06086081 0.23009342 -0.071202114 0.21450013
-0.04584807 -0.069554314 -0.00369797 0.17727599 -0.33913678 0.11526157 0.05064767 0.04540082
0.16746804 -0.49312192 0.025216956 -0.43902996 -0.27266943 -0.33453414 -0.0999731 0.19537413
-0.21812895 0.18390398 0.09600769 -0.03221979 0.041268967 -0.06708126 -0.3498057 -0.21448602
-0.4452575 -0.18711714 0.37058154 0.052537475 -0.06929381 -0.30057472 -0.015173084 -0.41886458
-0.26632664 0.26742658 -0.4587155 0.032215036 -0.026197767 -0.24763007 0.24727173 -0.030295268
0.17431112 0.3223505 -0.110167995 -0.2542138 -6.4832064e-05 -0.33831128 0.08010969 -0.027889462
-0.2418181 0.09585879 0.080204286 -0.032183062 0.24857049 0.03778111 -0.009455297 0.14992923
0.014284673 -0.19058937 0.22855566 0.20405269 -0.08988916 0.06661412 0.09106061 -0.041572236
-0.14354694 -0.2490437 -0.36772373 -0.053272612 0.06668437 -0.35000482 -0.06541693 -0.1404792
0.06164214 -0.2219401 0.25965768 0.04577505 -0.2475708 -0.5133269 0.10798616 -0.015721159
-0.04161682 0.2184126 0.14878051 -0.3153508 0.17410202 0.137423 -0.1720597 -0.120305106
0.15934065 0.11797764 -0.39984816 0.15691456 -0.01152885 0.1643672 -0.31864598 0.16733354
0.16017859 -0.25101888 0.018695101 0.028200034 -0.05707642 0.366341 0.19090937 0.07083571
-0.13144091 0.17837125 0.10450165 0.14318135 -0.16396174 -0.2536422 0.07023751 -0.18745153
-0.20165208 -0.18474665 -0.22813654 -0.331534 -0.04628762 0.2238685 0.1279759 -0.30453563
-0.4310194 -0.15710814 -0.41892478 -0.47250783 -0.010742576 0.050976012 -0.36259007 0.073737726
0.18951285 -0.40770733 0.031269975 -0.17814144 -0.11480472 0.16336958 -0.18711576 0.06666229
-0.5240623 0.2081562 -0.17964216 -0.1535562 -0.17824546 -0.20372698 -0.15901856 0.010683384
-0.30014595 -0.019589957 0.117542565 0.063893 0.043465372 -0.43370703 -0.32395324 -0.0071696215
-0.28277174 0.021524377 -0.20018053 -0.46435744 -0.36388898 0.11895189 -0.111230575 -0.1217449
0.11284115 -0.23149498 -0.2712226 0.21606946 -0.4985226 -0.23458599 -0.341623 0.23485813
-0.36215454 -0.21845447 0.25512627 0.12989704 0.13178287 -0.18808739 -0.11417792 -0.4560985
-0.43844268 -0.0880824 -0.3755211 -0.5666847 0.17163517 -0.17251554 -0.15849194 -0.52503383
0.0348384 -0.23405915 0.097573504 0.0995299 0.5103317 0.012201062 -0.2949541 0.17307176
0.056223128 0.14562863 0.09237458 -0.16282684 0.25794396 -0.34506464 -0.04907232 0.2688469
00000000: 69f3 d9be ad80 8c3e df5e 8cbe 4c20 12be
00000010: 9ffc 3b3d 4b8c 423e 4f99 5538 a900 cdbe
00000020: 06b8 1e3e 73bb 173e 4a3e 0ebe 3f7b ddbd
00000030: 5a64 0d3e 2c7a 803e 37c3 38be a639 52bd
00000040: e64a 4a3e f6f7 8cbc 0af9 ab3e a5d7 6dbd
00000050: b4fa f03c 044f bcbd 4d17 fe3d eb78 2ebe
00000060: 86fb 71bd a61f 63be fe3d 22be a305 e4be
00000070: 5825 c53c 3525 16be 9ff1 86be dc04 c1be
00000080: ffa7 95bd f001 4cbe fd3d 3d3e bc0b b2be
00000090: 5e05 81bd 35a5 20bd c700 c53d 62b8 0f3d
000000a0: cbe5 2ebe 67a6 5c3d 386e 01be f134 f13d
000000b0: 5a84 1fbe 57da 953c 3dcf 7d3e a3c8 8f3e
000000c0: 223f 95bc bac7 5ebe 44d1 40be 5cdd 223c
000000d0: 2f49 793d 9c9d 6b3e 6ad2 91bd eca5 5b3e
000000e0: 30cb 3bbd 7e72 8ebd a459 72bb d687 353e
000000f0: 56a3 adbe 420e ec3d ee73 4f3d 36f6 393d
00000100: be7c 2b3e 7a7a fcbe ca93 ce3c 89c8 e0be
00000110: 549b 8bbe 0f48 abbe b2be ccbd 2810 483e
00000120: 325d 5fbe 5351 3c3e ae9f c43d e6f8 03bd
00000130: a609 293d e661 89bd bc19 b3be 39a2 5bbe
00000140: cbf8 e3be a39b 3fbe ddbc bd3e 8931 573d
00000150: eae9 8dbd eee4 99be 8798 78bc 6b75 d6be
00000160: f75b 88be 23ec 883e c2dc eabe eaf3 033d
00000170: b39c d6bc bd92 7dbe cd34 7d3e c82d f8bc
00000180: 9d7e 323e 200b a53e c29f e1bd 5028 82be
00000190: 73f6 87b8 2337 adbe 8d10 a43d 7178 e4bc
000001a0: 2a9f 77be 9d51 c43d 2542 a43d 63d2 03bd
000001b0: 4389 7e3e 5dc0 1a3d 64ea 1abc 0c87 193e
000001c0: 430a 6a3c dc29 43be 7f0a 6a3e 30f3 503e
000001d0: cf17 b8bd fc6c 883d fc7d ba3d a647 2abd
000001e0: f8fd 12be 5005 7fbe 4946 bcbe 6234 5abd
000001f0: d191 883d d533 b3be 50f9 85bd c8d9 0fbe
00000200: 787c 7c3d 4444 63be daf1 843e 9e7e 3b3d
00000210: 3383 7dbe 6469 03bf d927 dd3d a9c9 80bc
00000220: 6676 2abd 8da7 5f3e eb59 183e a975 a1be
00000230: cd47 323e 9db8 0c3e 6b30 30be 8662 f6bd
00000240: 322a 233e 439e f13d e6b8 ccbe 36ae 203e
00000250: 80e3 3cbc e04f 283e 9125 a3be 7c59 2b3e
00000260: db05 243e 8c85 80be 7826 993c c203 e73c
00000270: f7c8 69bd 0c91 bb3e bf7d 433e 5012 913d
00000280: 7298 06be f4a6 363e f604 d63d 229e 123e
00000290: 96e5 27be 64dd 81be afd8 8f3d 4bf3 3fbe
000002a0: e27d 4ebe 3a2e 3dbe a09c 69be d3be a9be
000002b0: 1698 3dbd c93d 653e 1d0c 033e 18ec 9bbe
000002c0: 93ae dcbe f5e0 20be 4f7d d6be 8cec f1be
000002d0: a101 30bc 39cc 503d 68a5 b9be ce03 973d
000002e0: a80f 423e 04bf d0be f214 003d b66a 36be
000002f0: bd1e ebbd 5b4a 273e 469b 3fbe 3d86 883d
00000300: f228 06bf e626 553e 1df4 37be d63d 1dbe
00000310: fa85 36be ce9d 50be c3d5 22be 5c09 2f3c
00000320: bbac 99be 1e7b a0bc 28ba f03d 55da 823d
00000330: bf08 323d d90e debe 33dd a5be 25ef eabb
00000340: 75c7 90be e453 b03c 20fc 4cbe 42c0 edbe
00000350: a84f babe 0c9d f33d dbcc e3bd 6455 f9bd
00000360: 4319 e73d 050d 6dbe b0dd 8abe 5041 5d3e
00000370: 5b3e ffbe 4f37 70be 36e9 aebe a67e 703e
00000380: 526c b9be 87b2 5fbe e99f 823e bb03 053e
00000390: 17f2 063e fb99 40be 1dd6 e9bd be85 e9be
000003a0: 8f7b e0be 8c64 b4bd 4d44 c0be 4012 11bf
000003b0: 21c1 2f3e eaa7 30be b64b 22be 9e68 06bf
000003c0: b6b2 0e3d 34ad 6fbe 9ed4 c73d 55d6 cb3d
000003d0: 19a5 023f f7e6 473c 3904 97be b939 313e
000003e0: 394a 663d ac1f 153e e22e bd3d 14bc 26be
000003f0: 3b11 843e 50ac b0be 0f00 49bd 4da6 893e

fc3.bias f4 [10]
0.17482258 -0.07345631 0.03748245 0.075407475 0.23696536 0.001824853 0.15923986 -0.08362561
0.5227351 0.19520995
00000000: b104 333e 4370 96bd 3387 193d 3c6f 9a3d
00000010: 0ca7 723e e82f ef3a c60f 233e e743 abbd
00000020: f8d1 053f 1ee5 473e
