student_kd.pt (torch, 439383 bytes, 6 tensors)

fc1.weight f4 [128, 784]
000000 23 15 00 3c 17 2e df 3c 53 91 ae bc 2d 15 95 bc
       0.007817539 0.027243657 -0.02130953 -0.018198574
000010 18 d0 b9 bb c7 af 90 3c 72 bd f1 3b b8 1a 15 3d
       -0.0056705587 0.017661942 0.00737732 0.036402434
000020 4a 12 a1 3b 3d a6 8f 3c e7 7f 31 bb bf 8d 8b 3a
       0.0049155103 0.017535323 -0.0027084292 0.0010647102
000030 41 58 d8 bc 6d 2c 86 bc ce 7d d9 bb 97 23 1a 3c
       -0.02640927 -0.016378606 -0.0066373115 0.009407899
000040 45 e5 b5 3c 21 c8 f1 3c 2f 1d 84 bc 4e b0 f4 bb
       0.02220405 0.029514374 -0.016127197 -0.007467306
000050 a7 7f ac 3c ec 96 1a 3d 8a a6 40 3a 74 95 0e 3d
       0.021056963 0.037741587 0.0007349035 0.0348105
000060 5d 97 18 3b 27 61 42 3c f8 92 25 3d bd 2d cd bc
       0.002328358 0.011863983 0.040423363 -0.025046224
000070 99 e7 6b bc d2 c9 7a ba da 3f bf bb b0 81 1f 3d
       -0.014398479 -0.0009566817 -0.005836469 0.03894204
000080 43 d0 76 bc a7 e5 08 bc 8f 2b 8a bc 71 f2 cf bc
       -0.015064302 -0.008355535 -0.016866473 -0.02538416
000090 6b 29 4e bc a0 6f 21 3d b3 41 c1 3c e1 06 c8 3c
       -0.012583117 0.039413095 0.023590898 0.024417343
0000a0 38 9e ba 3b df 07 5d bc bd 71 43 3c 3b 4e e0 bc
       0.0056951307 -0.013490646 0.011928973 -0.027381053
0000b0 e7 71 9b bc ab a4 25 bc 8d f5 fc 3c a3 78 e2 3c
       -0.018975211 -0.010110061 0.030878806 0.027645415
0000c0 3f 51 43 bc 50 9e 86 3b 32 5f f9 3c a0 3a 31 3d
       -0.011921226 0.004108228 0.0304409 0.0432688
0000d0 23 59 b6 3c f3 82 53 3c e0 32 03 3d 9d 11 54 bc
       0.0222593 0.012909639 0.03203094 -0.012943652
0000e0 4c 80 71 3c b1 99 a0 bc 89 8b 88 bc af cf 29 bc
       0.014740061 -0.019604536 -0.016668098 -0.010364457
0000f0 85 5a c8 3c 9b e2 b8 3c 81 5b 4b bc 19 8c 93 3c
       0.024457226 0.022568991 -0.012411953 0.01801114
000100 23 4f cf 3c 23 9c 4a bb a8 ae 11 bb 04 37 fd 3a
       0.02530629 -0.0030915819 -0.0022229347 0.0019318764
000110 a3 25 b6 bc 02 cb a2 bc a3 9c 75 bd 40 b3 e0 bc
       -0.022234743 -0.019872192 -0.059963834 -0.027429223
000120 ee 0d 4a 3b ac 5a 06 3d 4e d9 46 3d e6 32 2b 3d
       0.0030831057 0.032801315 0.04854708 0.041796587
000130 63 47 90 3c 9d fb c8 bc 7c c3 cd 3b 0b 2e 5c bc
       0.017612165 -0.024534041 0.006279407 -0.013438712
000140 45 58 c7 bc c2 92 22 3d 96 58 10 3d 3f 9e e1 bc
       -0.024334082 0.03969074 0.035240732 -0.027541278
000150 4c fc 71 3c 4c 8f 07 3b 5a 41 10 3b d4 63 07 bc
       0.014769625 0.0020684777 0.0022011609 -0.008263547
000160 be 32 b3 3c d6 3d 4a bc 45 a1 a9 3c 2a 71 bb 3c
       0.021874782 -0.012343844 0.020706782 0.02288111
000170 67 32 a4 3c 93 b2 1b bc 54 c1 6b bd 16 02 b3 bd
       0.020043565 -0.009503025 -0.05755742 -0.08740632
000180 56 a0 ae bd 9f c4 be bd 94 c6 9a bd b2 2d 11 bd
       -0.085266754 -0.09314846 -0.07557407 -0.03544397
000190 4e 25 01 bd a5 28 82 bd 69 26 bb bd 9f 9b ec bd
       -0.031529717 -0.063554086 -0.091381855 -0.1155312
0001a0 a8 e7 ae bd 03 2a c9 bc fa 2f a9 bc b5 06 e2 bb
       -0.08540279 -0.024556166 -0.02065276 -0.006897772
0001b0 bc 23 b6 3a 65 9c 0d 3c 8c 77 c8 bb 69 d6 ef 3c
       0.0013896148 0.008643244 -0.0061177667 0.029277043
0001c0 11 9e 5f bc 3a e4 25 3d 8a e7 04 3d 1d 24 b7 bc
       -0.013648526 0.040500857 0.032447375 -0.022356087
0001d0 da a3 82 bb e1 81 8b 3b 2d 7b ca 3b 19 ad 04 3a
       -0.003986818 0.004257426 0.0061792345 0.0005061194
0001e0 59 ea 0d bd 3c 2b 38 bd b5 e8 2b bd ee 42 41 3a
       -0.03464732 -0.044963107 -0.041969974 0.0007372339
0001f0 f4 a4 b9 bd 14 60 8f bd 0a d6 3d 3d d4 ce dc bc
       -0.090646654 -0.07000747 0.0463467 -0.026954092
000200 0c a3 0f be a9 e3 91 bd 03 1b 9a bb 88 c2 4e 3b
       -0.14027041 -0.07123501 -0.004702927 0.0031549055
000210 97 aa 86 bd f8 db 6e bd 33 4b 4d bc ab 2f 7e 3c
       -0.06575506 -0.058315247 -0.012530136 0.015514295
000220 1a 96 91 3d 61 84 a1 3c 25 c2 89 3c c7 df f4 3c
       0.07108708 0.019716443 0.016816208 0.029891862
000230 32 af 2b 3d 07 08 fc 3c a8 8e 2c 3d d0 73 69 3b
       0.041915126 0.030765546 0.042128235 0.0035622008
000240 87 30 14 bd 8a 56 44 bd c9 77 54 bc d5 33 61 bd
       -0.03617909 -0.047934093 -0.012968012 -0.05498107
000250 77 d4 9c bd af 63 cf bc bb 58 ac 3d 6a ac 20 3e
       -0.07657712 -0.025316088 0.084153615 0.15690771
000260 7e 61 86 3e 7a 2f 4e 3e 8e 8f e4 3d bc 62 85 bd
       0.26246256 0.20135298 0.111601934 -0.06512973
000270 b8 96 9a 3d 41 b8 cc 3d 0a 79 7e 3d 2a 13 09 3d
       0.075482786 0.09996081 0.06212715 0.033465542
000280 df fb 86 3d 2b 8c 5e 3d b8 d4 f9 bc 6f d4 29 bd
       0.06591009 0.054332893 -0.03049694 -0.041462358
000290 51 52 2a 3c 2f ce 53 3d 24 cf d3 3b e3 3c a9 3c
       0.010395602 0.051710304 0.006463902 0.020658916
0002a0 8d 19 c5 bc 48 c1 b9 3b fe 05 36 3d 54 75 10 bd
       -0.024060035 0.005668793 0.04443931 -0.035268143
0002b0 32 74 6c bc bb a6 63 bc 63 56 c4 bd a3 7e c7 bc
       -0.014432 -0.013894732 -0.095867895 -0.024352377
0002c0 1d f1 d9 3c f3 7c 2d 3c 04 12 f6 3d 2a c9 18 3e
       0.02660423 0.010588872 0.12015155 0.14920488
0002d0 5d 19 3e 3e 47 76 01 3e 00 ae 14 3d 7e c5 ca 3c
       0.18564363 0.12642775 0.03629875 0.024752375
0002e0 3c 70 c3 3d ca 35 b6 3d f2 6f 9e 3c e0 c9 16 3d
       0.095428914 0.08896978 0.019340489 0.036813617
0002f0 2b 5a 24 bc 6b 7e b9 3d 76 26 d0 3d 27 7c b5 3d
       -0.010031263 0.090573154 0.10163586 0.08861571
000300 96 69 9f b9 b4 f8 25 3d f4 6e 0a 3b 99 2c 35 bc
       -0.0003040551 0.040520385 0.0021123262 -0.011057996
000310 6d 32 52 bc 02 d4 a0 3c 02 06 a6 bc 76 3f 10 bd
       -0.012829405 0.019632343 -0.020266537 -0.03521677
000320 9e 55 77 bc ce e3 ed 3c 68 f0 d3 bd 63 05 8a bd
       -0.015096096 0.02903929 -0.10348588 -0.06739309
000330 5b 73 fb 3d 3c 96 00 3e 1b 5e 1e 3e 11 8c 0f 3e
       0.12277862 0.1255731 0.15465586 0.14018275
000340 86 b3 1b bc a6 df 4e bd 23 38 b0 bc 0c 86 9d 3d
       -0.009503251 -0.050506257 -0.021511143 0.07691583
000350 3c 14 8b bc ba 85 99 3c 45 86 87 3d 76 78 44 3d
       -0.016977422 0.018740524 0.06617407 0.047966443
000360 d8 92 e7 bc ea e3 56 3d 8d e2 8b 3d 25 99 8b bc
       -0.028268263 0.05246345 0.068303205 -0.017040798
000370 09 f7 78 bc fa 30 62 3d 82 6d 16 3d e5 56 22 3c
       -0.0151956165 0.05522249 0.03672553 0.009908413
000380 e9 c0 be bc 6a 36 85 3c 0d d0 9c bc a8 ea 35 bc
       -0.023285346 0.016261298 -0.019142175 -0.01110331
000390 07 0a 3b bd 5d c0 f0 bc 5b 95 5f 3d 74 52 04 3e
       -0.04566386 -0.029388601 0.054585796 0.12922078
0003a0 df df 1e 3e 31 db f5 3d 34 24 ab 3d 2e b0 4b bd
       0.15515088 0.12004698 0.083565146 -0.049728565
0003b0 81 cf 0d be 55 3c 17 be d1 7e 4d 3d 60 d4 07 3d
       -0.13848688 -0.14769109 0.05016977 0.03316152
0003c0 5d a0 8c bd 9a 42 0e 3d 0d ca 62 3d ca b8 09 3e
       -0.06866524 0.034731485 0.055368472 0.13449398
0003d0 32 cf a8 3d ab 2e 15 bd 5f 78 b4 3d 8b 0c 74 3c
       0.08242644 -0.03642146 0.088120215 0.014895569
0003e0 74 c3 9b 3c c4 a8 b4 3d f4 ba b7 3c cd ef 85 3c
       0.019014098 0.08821252 0.022428013 0.016349697
0003f0 b0 ad 18 3d 4f d9 1e bc d6 ad 07 3c ba b2 4e bc
       0.037275016 -0.009695365 0.008281192 -0.012615854

fc1.bias f4 [128]
000000 7c a4 db bc 68 ef 0f 3e 00 7d 3d 3c a8 9c 10 bd
       -0.02681183 0.1405617 0.011565447 -0.03530565
000010 40 0d 1d 3d b2 a9 05 3b 35 76 aa bc cc 9a 53 3d
       0.038342714 0.0020395336 -0.020808319 0.051661298
000020 d0 16 52 3c 20 c6 a9 bc 5c 91 19 bd 5a 00 98 3c
       0.012822822 -0.020724356 -0.03749214 0.018554855
000030 68 e1 25 bd 5a 89 63 bb 80 cc c6 39 5c a7 ef 3b
       -0.040498167 -0.003471932 0.00037917867 0.007313652
000040 64 e5 90 bd 30 1b 1a 3d 4e dd 1c bc 70 b6 8f 3c
       -0.07075003 0.037623584 -0.0095742475 0.017543048
000050 10 7c 18 bd 14 53 8c bc f4 83 2a bd a9 cd 7c bc
       -0.03722769 -0.017129458 -0.041629747 -0.015429893
000060 69 24 d6 3c 97 87 67 bd 38 ee 3b 3d c1 46 86 bc
       0.026140409 -0.056525793 0.04588148 -0.01639116
000070 a7 bd 46 3d 74 e5 ab 3b db b4 70 bd a8 d4 db bc
       0.04852071 0.005245859 -0.058766227 -0.0268348
000080 88 6c 45 bc 5d 1b 2e bd a7 fc 9c 3c 0c 15 3b 3d
       -0.012049802 -0.042506564 0.019163443 0.04567437
000090 65 79 a5 bc 3a 3b e9 bc ed 86 30 bd a4 0b 13 bd
       -0.020199487 -0.028470624 -0.043097425 -0.035899773
0000a0 b6 b1 f2 bc 9a b4 ab b9 58 d7 48 3c 5f 97 a6 3c
       -0.029625755 -0.0003275022 0.012258373 0.020335851
0000b0 1b ad 8e 3c ca 2e 25 bc 7b ea 5b bd f8 9f af bb
       0.017416527 -0.010081956 -0.053690415 -0.005359646
0000c0 87 2c 86 bc db dc 9f 3d 31 ee 7d 3c d1 1b 2b bd
       -0.016378654 0.07805797 0.015498684 -0.041774575
0000d0 85 87 17 3d 6f 9f c1 3c db 7d 05 bd 9a 8e 61 3d
       0.036994476 0.023635594 -0.03259073 0.055067636
0000e0 33 d9 20 bd 06 32 11 bd 9c 7d 4d bd 1d 2f 84 3c
       -0.039269637 -0.035448097 -0.05016862 0.016135747
0000f0 dd df 40 3c 5e 0e da bc 4f 12 49 bd 69 99 8e 3b
       0.011772123 -0.026618179 -0.049089726 0.004351784
000100 6e a1 4b bd b6 43 a4 3a 9b 7d 3f bd 1b ca 06 bd
       -0.0497145 0.0012532386 -0.046750646 -0.032907587
000110 d0 32 b9 3c 59 e9 65 bd 43 1b a9 3c 5a 9d 3b bd
       0.022607237 -0.05613074 0.020642882 -0.04580436
000120 18 2e b0 3c 93 e2 e8 3b 99 40 1d 3d 54 4d f3 bc
       0.021506354 0.007107088 0.038391683 -0.029699959
000130 31 c0 52 3c 04 3a 5d bc 66 59 89 bc 61 1e c7 3c
       0.012863205 -0.0135026015 -0.016766261 0.024306478
000140 38 78 2e bb 4e 97 f8 bb b4 fd ae 3b 1f 8d c9 bc
       -0.002662195 -0.0075863963 0.0053403024 -0.024603425
000150 7f f9 aa bb 12 99 3f bd 29 8e ac 3c da 50 6e 3c
       -0.0052177305 -0.04677684 0.021063881 0.014545644
000160 3b 83 40 3d 9d e0 ae bc 39 08 d0 bc 15 4b f2 bc
       0.04700015 -0.021347338 -0.025394546 -0.029576818
000170 fc 24 38 bd 8c eb 86 bc b7 d4 d6 bc e2 b3 24 bc
       -0.044957146 -0.01646974 -0.026224477 -0.010052653
000180 54 7d 01 bd ac 5e 5c bd 66 25 22 bd 0f 46 1d bb
       -0.031613663 -0.053801224 -0.039586447 -0.0023998057
000190 43 56 f0 bc e9 03 de 3c e1 4e 55 bd 66 d1 2f bb
       -0.029338008 0.027101474 -0.052077178 -0.0026827692
0001a0 e6 fa 49 bd 5c e0 84 3a 1b 1a ee bc c5 73 5b 3c
       -0.04931154 0.0010137665 -0.029065182 0.013394301
0001b0 4e c5 bb 3c ef 0a 8d 3c 82 52 49 bd 05 a1 a8 bd
       0.02292123 0.017217128 -0.04915095 -0.08233837
0001c0 96 5b b4 3b 21 b6 17 3d f6 fb c2 bb 5a eb 8b 3b
       0.005504082 0.037038926 -0.0059504462 0.0042699995
0001d0 d7 de 34 bd 34 87 b2 3c b3 8c f6 3b 72 4d 81 3c
       -0.04415783 0.021792985 0.007524097 0.015784
0001e0 6f c6 8e 3c f3 ff a8 bd 07 a2 30 bc ca fc 33 3d
       0.017428605 -0.082519434 -0.010780818 0.04394225
0001f0 92 a5 b2 bc b3 0c 66 3c d1 c8 5c bd 06 c0 e3 3c
       -0.021807466 0.014041114 -0.05390245 0.027801525

fc2.weight f4 [64, 128]
000000 a5 aa b9 bd 46 89 c5 3d 9e 0d 17 3e 19 2b 28 3d
       -0.09065751 0.096453235 0.14751288 0.041056726
000010 d0 4a 19 be 55 f9 21 be c8 63 f4 3c 79 da 89 be
       -0.14969945 -0.15817769 0.029832736 -0.26924494
000020 a6 2f 27 3d 8e 15 9b 3d 20 e8 04 be cb 2c d2 3d
       0.040816925 0.075724706 -0.12979174 0.1026245
000030 82 78 85 be b1 8d ad 3d 34 91 2e be 00 26 d6 3c
       -0.26068503 0.08474291 -0.17047578 0.026141167
000040 9a 4c 1a 3e 0a 1c e8 3d 43 7d 6a 3d d7 26 a4 3b
       0.15068284 0.11333473 0.057248365 0.005009513
000050 f3 17 90 3c ae 64 b8 bd a7 97 4e 3e b2 f5 07 be
       0.017589545 -0.09003578 0.20175038 -0.13277319
000060 ac dc 2b 3e c8 0b a5 3d 52 2c 95 bd 3e 6d 99 bc
       0.16783398 0.08058888 -0.07283844 -0.018728849
000070 51 d0 65 3b 59 f6 85 bd ca b7 7d bb 7a 29 eb 3d
       0.0035066793 -0.06541128 -0.0038714283 0.114825204
000080 7d 4f 00 3e 43 c7 af bd 6a 7f 24 bd 81 23 3c 3e
       0.12530322 -0.08582928 -0.040160574 0.18372919
000090 1e 08 2c be 77 57 5c 3e 85 7e f2 bc 1d d1 7c 3d
       -0.16799971 0.2151774 -0.029601345 0.061722863
0000a0 a0 e0 ab 3d 62 7e 86 3d b5 46 ed bc cc e5 0a be
       0.08392453 0.06567074 -0.02896438 -0.13564223
0000b0 fb db a0 3d 32 69 32 3e ef d5 23 3d 92 79 18 3c
       0.07854458 0.17422941 0.039998945 0.009306328
0000c0 8c 4e 4c 3e c5 86 97 3d 37 9e 21 be e8 9a 8c 3c
       0.19951838 0.07398752 -0.1578301 0.017163709
0000d0 60 7b 5b 3e 2b 35 af 3d 08 ed 57 bd b5 47 00 3e
       0.21433783 0.08555063 -0.052716285 0.12527354
0000e0 93 c4 9a bd 30 fd 1e 3e 00 38 42 3d ba 95 af 3d
       -0.07557025 0.15526271 0.047416687 0.0857348
0000f0 95 dd e0 bd fd 34 e7 bc d3 6a 08 bd d7 56 05 be
       -0.109797634 -0.028223509 -0.033305 -0.13021408
000100 72 56 f4 3d 77 c4 1c 3e e1 a6 22 3e 20 26 26 39
       0.11930551 0.1530932 0.15883972 0.00015845196
000110 85 19 74 3d ce 3f 57 be 7f ee 96 3d 82 e4 53 3a
       0.05959465 -0.21020433 0.07369708 0.00080830615
000120 c7 d6 f2 3d b6 51 b8 3d 9f 43 cd bd 2e 1e e6 3d
       0.11857372 0.0899996 -0.10022663 0.11236225
000130 0c 42 9d 3d 0c b3 17 be 3c ca df bd 16 a2 c3 bd
       0.07678613 -0.14814395 -0.10927245 -0.095524
000140 58 d8 06 3e b2 1f 96 3d e9 9e 13 3e 74 a3 21 3d
       0.13168466 0.07330264 0.14416088 0.03946252
000150 2c d3 6b be 5b 02 19 bd a1 19 ea 3d ff 13 6a be
       -0.23029774 -0.037355762 0.114306696 -0.2285919
000160 dd cf 8a 3d a6 a2 bc bd 67 3e 2a be 64 13 59 bd
       0.06777928 -0.0921071 -0.16625367 -0.052997008
000170 39 75 26 bd c4 56 9c bd 36 af 76 3e de c6 4e 3e
       -0.040639136 -0.07633737 0.24090275 0.2019305
000180 3e be 01 3d 02 83 82 3d 80 64 84 bd d3 c1 6c bd
       0.03167557 0.06372644 -0.06464481 -0.057802033
000190 b1 c5 e2 bd 18 77 be be a4 13 4d 3e 51 56 19 3e
       -0.11072863 -0.37200236 0.20027024 0.14974333
0001a0 45 8a 67 3e d2 b9 17 bd 6d 02 78 be 4a 49 58 3e
       0.2261134 -0.037042446 -0.24219675 0.21121708
0001b0 50 00 7b bd 2c 3d 37 3d 82 a1 17 bd 4e ac 0d 3e
       -0.061279595 0.044736072 -0.03701926 0.1383526
0001c0 d9 de a3 bd c0 a7 6b be 4b 84 98 bc a8 5c cf bd
       -0.08001489 -0.2301321 -0.01861777 -0.10125095
0001d0 27 da c5 3d 1b a1 8c 3d 54 af a9 bd 07 f2 ac bd
       0.0966075 0.06866666 -0.08285394 -0.084446006
0001e0 ba 22 de bd e4 d1 1f 3c d4 a7 84 bd fc ad bb bd
       -0.10846467 0.009754632 -0.06477323 -0.09164044
0001f0 ec 96 2b bd db 0f ae bd 87 ec 4c be 67 50 a7 bd
       -0.041891977 -0.08499118 -0.20012103 -0.081696324
000200 fb ff 16 bd c8 c3 67 3e c5 3f 87 bb c0 0a f8 3d
       -0.036865216 0.22633278 -0.004127475 0.121114254
000210 d1 87 f5 3d b6 57 d2 3c a0 ba 72 bd 64 af df 3d
       0.119887955 0.02567659 -0.05926001 0.10922125
000220 e4 25 88 be 12 89 e7 bd 03 b5 45 be b2 7b be bd
       -0.26591408 -0.11305441 -0.19307332 -0.09300937
000230 5a 7e 5e be fe a0 28 be 1d 09 18 be 5e 5e 4a bd
       -0.21727887 -0.16467664 -0.14847226 -0.0494064
000240 70 ca c0 bd ae a8 2d 3e 68 f9 2d 3e 52 13 27 3d
       -0.09413612 0.16958877 0.16989672 0.04078991
000250 04 58 84 3e 68 23 8b bd e9 19 6a be 24 5a 29 be
       0.258484 -0.067938626 -0.22861446 -0.16538292
000260 8b db 9e be 49 c3 64 3e f8 d8 0c 3d 29 aa 9c 3d
       -0.31026873 0.2234012 0.034386605 0.07649643
000270 f6 3b 12 be 80 72 4f be 73 19 9a bd 5c ba e6 3d
       -0.14280686 -0.20258522 -0.07524385 0.11266014
000280 63 09 d4 be 98 f0 2c be 5c 93 a3 bd 5c 20 b4 bd
       -0.41413411 -0.16888654 -0.07987091 -0.087952346
000290 70 09 27 3e a9 26 11 be 70 40 98 3d db 97 02 bf
       0.16312194 -0.14174904 0.074341655 -0.51012963
0002a0 36 1e 15 bd 97 48 b7 3d 2f 86 5c bc fe b1 65 3e
       -0.036405765 0.08949392 -0.013459726 0.2243118
0002b0 47 4c 98 3c 7b d4 9c be 2c 44 eb 3c a8 e4 8a bd
       0.01859106 -0.3063086 0.02871903 -0.06781894
0002c0 e1 24 aa bd 37 74 5d 3d 2c 37 01 bd 98 f9 91 3d
       -0.08307815 0.05406591 -0.031546757 0.07127684
0002d0 14 04 5b bc dc c4 13 be 86 af 45 bd 6d 4b 71 3e
       -0.0133676715 -0.14430565 -0.048263095 0.23563929
0002e0 73 5b 07 be a8 29 73 3d 62 80 18 bd 43 4d 25 bd
       -0.13218479 0.0593659 -0.03723181 -0.040356886
0002f0 a6 ae 5b 3d a8 bf ee 3c 0f 49 bb bc 0e fb 56 be
       0.053633355 0.029144123 -0.022861985 -0.20994207
000300 22 5f c5 be 91 1b c0 3d 77 31 d0 be f9 04 50 3d
       -0.38549143 0.09380258 -0.4066274 0.050785992
000310 a6 6a e8 3d 26 30 50 bd 2f 71 bd 3c 93 e7 39 3c
       0.113484666 -0.050827168 0.02312526 0.0113467155
000320 ca 29 56 bc a3 f0 2d be ea c0 a6 bb 98 e1 26 bc
       -0.013071487 -0.16986327 -0.005088915 -0.010185622
000330 06 43 54 be e9 51 28 bd 2f 54 d0 3d d7 eb 1c 3c
       -0.20728692 -0.04109374 0.10172307 0.009577713
000340 e3 55 90 be 94 6c 64 bd b5 17 5f 3e 80 e9 87 be
       -0.28190526 -0.05576761 0.21786387 -0.26545334
000350 47 1a 00 be fa 04 79 3e 6e cf 54 3d 8a 22 2d bd
       -0.12510024 0.24318305 0.051955633 -0.042269267
000360 a5 10 05 3e 67 ba 29 3d 04 db d4 bd f0 1a 17 be
       0.1299463 0.041437533 -0.103933364 -0.1475637
000370 3c fa 99 bd 08 95 1b 3c e9 47 3e be c5 a4 16 bd
       -0.075184315 0.009495981 -0.18582119 -0.03677823
000380 ba 24 1c bc df 3d 0e bd 32 e4 8d 3a 55 5e 15 be
       -0.009530241 -0.034726974 0.0010825454 -0.14586766
000390 a7 21 e6 bd 54 48 ac 3d bc c4 80 be ea 1a 8a be
       -0.112368874 0.08412233 -0.25150096 -0.2697366
0003a0 5d 4e 2f be a9 3f 5b 3d 11 21 14 3d b7 1b 29 3e
       -0.17119737 0.053527508 0.036164347 0.16514479
0003b0 bd 75 c4 bd 85 86 cc 3c 2c ec 1c 3d 58 ba fb bd
       -0.09592769 0.024966488 0.03831117 -0.122914016
0003c0 f9 a7 d4 bc 9f 1e 69 3d 91 92 80 be 5b c5 ca bb
       -0.025959002 0.05691397 -0.2511182 -0.0061880774
0003d0 d2 7e 16 3e bd 6f ef bd 88 d0 86 3c 27 3f 09 be
       0.14696816 -0.11691234 0.016456857 -0.13402997
0003e0 c5 5c c7 bb 49 24 78 bd 69 3b 27 bc f1 62 3b 3e
       -0.006084057 -0.06058148 -0.010207036 0.18299462
0003f0 37 c4 65 be fd 64 92 bd 90 ff 34 3d 11 8d a0 3d
       -0.22438131 -0.07148168 0.044189036 0.07839406

fc2.bias f4 [64]
000000 49 e2 bb 3e 81 85 9a 3e c8 e6 45 3d e5 0a 5b 3d
       0.3669608 0.3017998 0.048315793 0.053477187
000010 49 15 74 3e 23 1f 6b 3e 8d 66 29 3e 64 7d d1 bd
       0.23836245 0.22961096 0.16543026 -0.102289945
000020 ac 33 6f 3d 5f 12 ca bd f2 ff 81 3e 0a fa 8d 3d
       0.058398888 -0.09866785 0.25390583 0.06932457
000030 61 16 7d 3e db 5c fe 3d 77 73 2b bd df bd b8 3d
       0.24715568 0.124200545 -0.041858163 0.0902059
000040 91 9f 84 3e 86 20 8e bc d0 8e 66 3c 47 7d b2 3b
       0.2590299 -0.017349493 0.014072135 0.005447063
000050 d0 18 94 3e 1b 56 e0 bd 54 97 1a be 6d b4 33 3e
       0.2892518 -0.10953923 -0.1509679 0.17549296
000060 0c 98 1a 3c 28 99 27 be 95 c8 b9 3d 8e 6a 93 3d
       0.009435665 -0.16367018 0.09071461 0.07198058
000070 47 60 34 3e cd 21 27 3e df e9 b2 bc 46 54 a8 3e
       0.17614852 0.16321488 -0.021840034 0.32876796
000080 3b 01 13 3e 4f 4a ed 3d 9d 72 8f 3d f7 69 58 3e
       0.14355938 0.11586439 0.070042826 0.21134172
000090 2f 12 43 be 5d 4a b2 3e ae 5d e8 bc 9f d1 8c 3e
       -0.19049905 0.3482236 -0.028364982 0.27503678
0000a0 47 d5 f4 3d cf 88 a7 3d 37 c0 3d 3e eb f7 06 3f
       0.11954742 0.08180391 0.18530355 0.5272204
0000b0 c1 bb 29 3e 9e f0 d4 bc 6c 89 9c 3d 56 44 ec bc
       0.16575529 -0.025993641 0.07643399 -0.028841179
0000c0 59 e1 8b 3d 98 dc 73 bd 12 ca 8c bd 31 02 a2 bd
       0.06830091 -0.059536546 -0.06874479 -0.07910574
0000d0 ff 0e e5 3d f4 42 34 be b4 c8 a2 3d 9e 12 c3 3d
       0.11184501 -0.17603666 0.07948437 0.09525035
0000e0 d1 26 96 3e 85 52 8b 3e b5 c9 89 3e b4 91 6c 3e
       0.2932649 0.27211395 0.26911703 0.23102456
0000f0 40 6a 27 3e a5 3c e7 3d 9f c2 69 3e 01 4b 21 3e
       0.16349125 0.11290864 0.22828148 0.15751268

fc3.weight f4 [10, 64]
000000 49 9f 6a be bf fd 14 3e bf 6e 77 be 4a 39 74 bd
       -0.22912325 0.14549921 -0.2416334 -0.059624948
000010 ed d3 2c 3d f9 88 81 3e 76 8f 8b 3e fa ff dd bc
       0.042194296 0.25299814 0.2725789 -0.027099598
000020 f0 87 f8 3d cd 72 8c 3e 8d 84 7e bc 0c 93 25 be
       0.12135303 0.27431336 -0.015534532 -0.16169375
000030 96 68 b4 3d 09 f5 0f 3e 16 47 fd bd fc cb c1 3d
       0.08809011 0.14058317 -0.12367074 0.09462735
000040 63 c6 2b 3e a9 04 46 3d d8 ab 71 3e 1b 28 f9 bd
       0.16774897 0.048344288 0.2360071 -0.12165853
000050 1d 89 5c 3e a1 fa 37 bd 96 58 9a 3d ea dd 1b 3c
       0.2153668 -0.044916753 0.07536428 0.009513358
000060 1f 5a cd 3d a1 fc 08 3e fc 6e ea 3d 32 18 f3 bc
       0.10026955 0.1337762 0.1144695 -0.029674623
000070 dd bd 5a be b6 f1 42 3e 97 5d bf 3d 1a 7a 37 be
       -0.2136149 0.19037518 0.09344023 -0.17917672
000080 29 d5 30 3b 2b 1d 2a be 30 2c 4b 3e a8 d1 8f 3d
       0.0026982522 -0.16612689 0.19841075 0.07022411
000090 9c 50 dd 3d 49 33 24 3d 1e 94 7a be c0 fe c9 bc
       0.10806391 0.04008797 -0.24470565 -0.024657607
0000a0 fc c6 18 bd 33 8e 06 3e 6d 32 a6 3d ec de b0 bd
       -0.03729914 0.13140182 0.08115087 -0.08636269
0000b0 5a 8b e2 bd bd c7 22 3e a9 ee 90 3e 8a c6 f9 3d
       -0.110617355 0.15896507 0.28307083 0.121960714
0000c0 a4 7b 2b be b2 7c 32 be 27 60 b5 bd af f8 91 3e
       -0.16746384 -0.1743038 -0.0885623 0.28510043
0000d0 39 df 2b be 58 b1 34 3e a5 4b 2c 3d f1 2c 08 3c
       -0.16784371 0.17645776 0.042064328 0.008311496
0000e0 1c c8 c5 bc 5f 70 80 bc 0b bd 06 3e b4 69 85 3d
       -0.024143271 -0.015678583 0.13158052 0.06514302
0000f0 e4 53 45 bd 5f 12 34 3d e7 90 30 3e 66 f6 1a 3d
       -0.048175707 0.043962833 0.17242776 0.03783264
000100 4e d3 48 3e ec 58 6b be c5 33 ba 3d e6 da ca bd
       0.19611856 -0.2298314 0.090919055 -0.09905033
000110 57 bb a0 be ea de 8a be 4b da b7 3d 7c 74 65 3e
       -0.3139293 -0.27123195 0.08977183 0.22407717
000120 e3 60 8c 3d 2c 17 29 3e 81 6c 53 3e fd b0 3f 3d
       0.06854417 0.16512746 0.2064686 0.04679965
000130 1b 81 a6 bc c2 b7 3f 3d 60 76 37 be e5 c3 21 be
       -0.020325234 0.046806104 -0.1791625 -0.15797384
000140 47 8b e4 bd df 19 f4 3c d6 00 84 3e ab 3f 78 3e
       -0.111593775 0.029797493 0.25781888 0.24243037
000150 48 a8 4d 3d f1 8c 64 be 59 7b 47 3e a0 c3 1a 3e
       0.050209314 -0.2231939 0.19480647 0.15113688
000160 fe 0b b1 bd ad 4c 68 3e 1d 80 3d 3e 00 3d 67 3e
       -0.086448655 0.226855 0.18505903 0.22581863
000170 47 4c 84 be 4d 03 3f bd dd bf 8b 3e 8d f9 b9 bc
       -0.25839445 -0.046634007 0.27294818 -0.022702003
000180 ec c4 1e 3e f2 b3 2d 3e 56 d7 1b 3d c5 8f c9 3c
       0.15504807 0.16963175 0.038047157 0.024604687
000190 ae 77 89 3d 61 5a b1 bd 62 92 0c 3e 93 d0 cd bc
       0.0671228 -0.086598165 0.13727716 -0.02512387
0001a0 60 8c 0e 3e 68 4c 93 3e f9 7b 0f 3e be 64 03 3e
       0.13920736 0.2876923 0.14012136 0.12831399
0001b0 ec fc 17 3e 21 e1 2d 3e 12 8e 2b 3d c2 e8 41 3e
       0.14842576 0.16980411 0.041883536 0.18936446
0001c0 2d 6e 7e 3e 9d cc 29 3d e3 8a 56 3e 61 2d 41 3e
       0.24846716 0.0414549 0.20951419 0.18864967
0001d0 c6 ac 0f be fd 33 38 3e a2 9a a1 3d 57 82 62 3e
       -0.14030752 0.17988582 0.07890822 0.22120033
0001e0 4d a6 26 3d ca 18 2e be 8b cb 87 bd 80 a4 13 3e
       0.04068594 -0.17001644 -0.066306196 0.1441822
0001f0 1c 14 d2 3d 6e 8d 3a be 8a f8 45 3d 20 c4 6a 3d
       0.10257742 -0.18218014 0.04833273 0.057315946
000200 a3 83 0b 3e 25 36 00 be a7 ed 66 3e b5 ab 01 3e
       0.13624434 -0.12520654 0.22551595 0.12663157
000210 74 c1 09 be 92 4c 04 be 74 ac 9d 3d 98 89 63 3e
       -0.13452703 -0.12919834 0.076989084 0.22220457
000220 a0 3a 12 be 06 35 5c 3e 00 48 31 3e c1 36 a6 bd
       -0.14280176 0.21504602 0.17312622 -0.08115912
000230 c0 4e 87 3e b8 8e 4d 3e ae 22 6d bd da 74 af bc
       0.2642727 0.20073974 -0.0578944 -0.021418024
000240 3a 69 62 3e 28 7e 28 3e d7 f5 97 be 4d e5 0e 3e
       0.22110453 0.16454375 -0.29679748 0.13954659
000250 e3 49 5d be cc a1 0e 3e f4 34 98 bd 0b 75 06 3d
       -0.21610217 0.13928908 -0.07431975 0.032826465
000260 78 73 32 3e d7 52 dc bb 08 a7 ca bd c7 58 0c 3e
       0.1742686 -0.0067237425 -0.0989514 0.13705741
000270 b0 1a 65 bc 40 c4 cd 38 9f 9e 09 3e a9 1a d0 3d
       -0.013983414 9.811716e-05 0.13439415 0.10161335
000280 fd fd 09 3e 20 29 27 3e e0 5c 3d 3e 75 9e 6c 3e
       0.13475795 0.16324282 0.1849246 0.23107322
000290 7e 84 6e be 39 0b 1f be f7 f5 a0 3d 84 b6 6a be
       -0.2329273 -0.15531625 0.07859414 -0.22921187
0002a0 5c b9 3c 3d 15 5d f6 bc 21 1e 88 bc 6e 99 b9 bd
       0.04607521 -0.030073682 -0.01661593 -0.090624675
0002b0 b6 31 84 3d 01 42 89 3e 72 21 66 3e 53 11 ce bd
       0.06454794 0.2680817 0.22473696 -0.10061898
0002c0 bc 9d 9b 3c fe fc 9d bc fa 6c 32 be df b6 83 be
       0.018996112 -0.019285675 -0.17424384 -0.25725457
0002d0 0e c8 27 3e 0e ae 14 3e 63 47 b9 be be d9 a4 bb
       0.16384909 0.14519522 -0.36187276 -0.0050308397
0002e0 fc e7 73 3e 8c af cf bd ea 38 34 3e c0 38 41 be
       0.23818964 -0.10140905 0.17599836 -0.18869305
0002f0 16 10 35 bd 29 88 52 3e 7a d9 03 3d df df d3 3d
       -0.044204794 0.20559753 0.032189824 0.103454344
000300 7c 4a 26 3d 71 84 6b 3e e1 ac 25 3c 71 26 c0 3d
       0.040598378 0.22999741 0.010112018 0.09382332
000310 d4 85 d1 be be b3 41 3d e8 91 52 be 55 fb 99 3d
       -0.40922415 0.047290556 -0.20563471 0.07518641
000320 d8 7e f1 bd fb 5d 00 3c 24 7a 6b 3e 9d 54 30 3d
       -0.11791772 0.007834907 0.22995812 0.043049444
000330 14 e1 75 3e 67 e8 64 be da 6e 8a 3d 70 52 3c 3e
       0.24011642 -0.2235428 0.067594245 0.18390822
000340 fc 2b 38 bd 17 43 7a 3d a2 ca 63 bd aa c6 f1 bd
       -0.04496382 0.061099138 -0.055613168 -0.1180547
000350 d7 03 74 be 76 6e 56 3e 04 4c 5c 3e e2 e5 8d bc
       -0.2382959 0.20940575 0.21513373 -0.01732153
000360 e3 b4 18 3e ae 63 f3 3d 64 04 d0 3d e3 e8 30 3e
       0.14912753 0.11884247 0.101570874 0.17276339
000370 f1 76 cc be 1b af 01 3e 75 b7 25 be 74 d8 a2 3e
       -0.39934495 0.12664454 -0.16183265 0.31805766
000380 78 ce a9 be 82 f1 a3 3d 6f c7 72 3e 64 ce e3 3d
       -0.33165336 0.08005048 0.2370889 0.1112335
000390 f1 d2 15 bc c1 1b bc bc b2 f3 7a be e5 93 28 bf
       -0.009144531 -0.022962453 -0.24507025 -0.6585067
0003a0 ae 3f f0 bd 29 b6 cb 3c 07 2b 62 be ad 0b f5 be
       -0.11730896 0.024867134 -0.22086726 -0.4786047
0003b0 44 1d 52 3e bd 39 57 be 51 4a d3 bc d6 51 cc bc
       0.20518976 -0.21018119 -0.025792273 -0.024941366
0003c0 7c bd 85 3e 31 75 d4 bc 30 5f 42 3e ad 8a 71 3e
       0.26121128 -0.025934787 0.18981624 0.23588057
0003d0 5c 35 4a 3e 04 1f 8f 3c 71 07 21 be 70 9f 2c 3e
       0.19746917 0.017470844 -0.15725495 0.16857696
0003e0 54 17 8e 3e f7 66 35 3e 12 32 67 3e b9 a4 13 bd
       0.27752173 0.17715059 0.22577694 -0.036045764
0003f0 38 6d c1 3e 8c a0 81 3d 4b ef 8a bb 72 81 80 3d
       0.3777864 0.0632945 -0.0042399517 0.0627469

fc3.bias f4 [10]
000000 88 53 7b 3e b1 3d 39 be ad b1 7f 3e 3e e2 64 3e
       0.24543583 -0.1808994 0.24970122 0.2235193
000010 31 1c 99 3e 21 eb 35 3e e0 2a dd 3d 0b d6 16 be
       0.2990432 0.17765476 0.107991934 -0.14730088
000020 db 00 e2 3e fc ce d8 3d
       0.44141278 0.10586354
